…
  warnings.warn(

        Initializing Flow Matching model with:
        - sigma_0: 0.0
        - sigma_sched: False
        - t_embed_dim: 64
        - version: icfm
        - batch_size: 16
        - prior: uniform
        - k: 32
        - r: 0.3
        - optimal_transport: True
        - lambda_mass: 1.0
        - t_embed: sinusoidal
        - dim: 3
              
2026-05-14 11:34:14,318 - INFO - Number of trainable parameters: 1356234
2026-05-14 11:34:14,318 - INFO - Model architecture: DistributedDataParallel(
  (module): FlowMatching(
    (vnet): EGNN(
      (h_embed): MLP(
        (layer): Linear(in_features=2, out_features=64, bias=True)
      )
      (theta_embed): SinusoidalThetaEmbedding()
      (global_attr_projection): Linear(in_features=224, out_features=64, bias=True)
      (mass_readout): MLP(
        (mlp): Sequential(
          (0): Linear(in_features=64, out_features=256, bias=True)
          (1): SiLU()
          (2): Linear(in_features=256, out_features=256, bias=True)
          (3): SiLU()
          (4): Linear(in_features=256, out_features=1, bias=True)
        )
      )
      (layers): ModuleList(
        (0-3): 4 x EGCL(
          (activation): SiLU()
          (edge_mlp): MLP(
            (mlp): Sequential(
              (0): Linear(in_features=196, out_features=256, bias=True)
              (1): SiLU()
              (2): Linear(in_features=256, out_features=256, bias=True)
              (3): SiLU()
              (4): Linear(in_features=256, out_features=64, bias=True)
            )
          )
          (node_mlp): MLP(
            (mlp): Sequential(
              (0): Linear(in_features=192, out_features=256, bias=True)
              (1): SiLU()
              (2): Linear(in_features=256, out_features=256, bias=True)
              (3): SiLU()
              (4): Linear(in_features=256, out_features=64, bias=True)
            )
          )
          (node_norm): LayerNorm((64,), eps=1e-05, elementwise_affine=True)
          (coord_mlp): Sequential(
            (0): Linear(in_features=128, out_features=256, bias=True)
            (1): SiLU()
            (2): Linear(in_features=256, out_features=1, bias=False)
          )
          (attn_mlp): Sequential(
            (0): Linear(in_features=64, out_features=256, bias=True)
            (1): SiLU()
            (2): Linear(in_features=256, out_features=1, bias=True)
          )
        )
      )
      (theta_predictor): Linear(in_features=64, out_features=5, bias=True)
    )
    (time_mlp): Linear(in_features=1, out_features=64, bias=True)
    (sinusoidal_time_embedding): SinusoidalTimeEmbedding()
  )
)
2026-05-14 11:34:14,322 - INFO - Started training
2026-05-14 11:35:08,069 - INFO - Epoch 1, Total: 0.019498, Pos: 0.005633, Mass: 0.010955
2026-05-14 11:35:20,940 - INFO - Epoch 1, Validation loss: 0.016209703957677908
2026-05-14 11:36:46,325 - INFO - Epoch 2, Total: 0.015936, Pos: 0.005947, Mass: 0.009389
…
