…
  warnings.warn(

        Initializing Flow Matching model with:
        - sigma_0: 0.0
        - sigma_sched: False
        - t_embed_dim: 64
        - version: icfm
        - batch_size: 16
        - prior: uniform
        - k: 32
        - r: 0.3
        - optimal_transport: True
        - lambda_mass: 0.1
        - t_embed: sinusoidal
        - dim: 3
              
2026-05-12 18:57:10,982 - INFO - Number of trainable parameters: 1356234
2026-05-12 18:57:10,983 - INFO - Model architecture: DistributedDataParallel(
  (module): FlowMatching(
    (vnet): EGNN(
      (h_embed): MLP(
        (layer): Linear(in_features=2, out_features=64, bias=True)
      )
      (theta_embed): SinusoidalThetaEmbedding()
      (global_attr_projection): Linear(in_features=224, out_features=64, bias=True)
      (mass_readout): MLP(
        (mlp): Sequential(
          (0): Linear(in_features=64, out_features=256, bias=True)
          (1): SiLU()
          (2): Linear(in_features=256, out_features=256, bias=True)
          (3): SiLU()
          (4): Linear(in_features=256, out_features=1, bias=True)
        )
      )
      (layers): ModuleList(
        (0-3): 4 x EGCL(
          (activation): SiLU()
          (edge_mlp): MLP(
            (mlp): Sequential(
              (0): Linear(in_features=196, out_features=256, bias=True)
              (1): SiLU()
              (2): Linear(in_features=256, out_features=256, bias=True)
              (3): SiLU()
              (4): Linear(in_features=256, out_features=64, bias=True)
            )
          )
          (node_mlp): MLP(
            (mlp): Sequential(
              (0): Linear(in_features=192, out_features=256, bias=True)
              (1): SiLU()
              (2): Linear(in_features=256, out_features=256, bias=True)
              (3): SiLU()
              (4): Linear(in_features=256, out_features=64, bias=True)
            )
          )
          (node_norm): LayerNorm((64,), eps=1e-05, elementwise_affine=True)
          (coord_mlp): Sequential(
            (0): Linear(in_features=128, out_features=256, bias=True)
            (1): SiLU()
            (2): Linear(in_features=256, out_features=1, bias=False)
          )
          (attn_mlp): Sequential(
            (0): Linear(in_features=64, out_features=256, bias=True)
            (1): SiLU()
            (2): Linear(in_features=256, out_features=1, bias=True)
          )
        )
      )
      (theta_predictor): Linear(in_features=64, out_features=5, bias=True)
    )
    (time_mlp): Linear(in_features=1, out_features=64, bias=True)
    (sinusoidal_time_embedding): SinusoidalTimeEmbedding()
  )
)
2026-05-12 18:57:10,986 - INFO - Started training
2026-05-12 19:04:01,383 - INFO - Epoch 1, Total: 0.007349, Pos: 0.005494, Mass: 0.011387
2026-05-12 19:05:10,252 - INFO - Epoch 1, Validation loss: 0.007036595167512568
2026-05-12 19:07:24,229 - INFO - Epoch 2, Total: 0.006833, Pos: 0.005771, Mass: 0.009865
…
